models/P15121_FCNN_tuned.pt (torch, 72230 bytes, 5 tensors)

layers.0.weight f4 [83, 167]
0	0xbd8e5662	-0.0695007
1	0x3b877050	0.0041332617
2	0x3d14c917	0.036324587
3	0x3d6deaf6	0.058085404
4	0x3d604a44	0.054758325
5	0x3d953831	0.07286108
6	0xbd807075	-0.062714495
7	0xbd98e8ae	-0.07466255
8	0xbd98a9d0	-0.07454264
9	0xbd1f3cb6	-0.038876258
10	0xbbeaa2a3	-0.007160501
11	0x3c910278	0.017701373
12	0xbd7de608	-0.061986953
13	0xbd97b220	-0.074070215
14	0x3d6751df	0.056474563
15	0xbd187f4e	-0.037230782
16	0xbcc4264d	-0.023944044
17	0x3c8958de	0.016766008
18	0xbd3e6e53	-0.046491932
19	0xbe7d1acf	-0.24717258
20	0xbd846121	-0.06463838
21	0x3d57967f	0.05263376
22	0x3e41070d	0.18850346
23	0x3d99f6e8	0.07517797
24	0x3d7e076a	0.06201879
25	0x3eb7054f	0.35746238
26	0x3e24e8a8	0.16104376
27	0xbeab7eb6	-0.3349511
28	0x3e8a9a89	0.27071026
29	0xbcf7ab62	-0.030233089
30	0xbb85f6d7	-0.0040882635
31	0x3c9878f6	0.018612366
32	0x3e8eb53d	0.2787265
33	0x3e8baf5b	0.27282223
34	0x3e00832e	0.12550041
35	0xbd22915b	-0.039689403
36	0xbeb54301	-0.35402682
37	0x3cc3fffd	0.023925776
38	0xbe71e5e9	-0.2362286
39	0x3d143908	0.0361872
40	0x3da6b114	0.08139244
41	0xbe41e3aa	-0.18934503
42	0xbbfd079b	-0.007721854
43	0xbd5d8dfc	-0.054090485
44	0x3cc6a492	0.024248395
45	0x3e37b6ee	0.17940876
46	0x3d9935a5	0.07480935
47	0xbead664e	-0.33867115
48	0xbd17b935	-0.03704186
49	0x3e327a1c	0.17429394
50	0x3d1cf510	0.038319647
51	0x3dbca9a2	0.092120424
52	0xbe1df052	-0.15423706
53	0xbdacbf9b	-0.08434983
54	0xbe6e4bdc	-0.23271126
55	0x3da1d577	0.07902043
56	0x3cbe473e	0.02322733
57	0xbe968cf2	-0.29404408
58	0xbc8c9ca9	-0.017164545
59	0x3de5043f	0.111824505
60	0x3db8c79d	0.09022448
61	0x3db40399	0.08789749
62	0x3e475264	0.19465023
63	0x3da6a77b	0.08137413
64	0xbd232531	-0.03983039
65	0x3d12e4f9	0.035862897
66	0xbde0225f	-0.10944056
67	0xbcf8df95	-0.03038005
68	0xbd932591	-0.071848996
69	0xbc848ccd	-0.01618042
70	0x3e0a40d7	0.13501297
71	0xbe69236a	-0.22767416
72	0xbc881e40	-0.016615987
73	0xbcf8c86b	-0.030369004
74	0xbdee31d5	-0.116305985
75	0xbb639d9a	-0.003473139
76	0xbdbf8d4b	-0.09353121
77	0xbd0af064	-0.03392066
78	0xbe844cf8	-0.25839972
79	0x3dcab448	0.09897667
80	0xbd97929a	-0.07401009
81	0xbe6a0c1b	-0.2285618
82	0xbdb0974e	-0.08622609
83	0x3d5661b7	0.052339282
84	0x3ccee0ce	0.02525368
85	0xbd919cb6	-0.07109968
86	0x3daf5eb4	0.08562985
87	0xbe2b8e9d	-0.16753621
88	0xbda7000c	-0.08154306
89	0xbcb44397	-0.022004886
90	0x3d95a1bd	0.0730624
91	0x3d346949	0.04404572
92	0xbe01d62d	-0.12679358
93	0xbdd8d9f7	-0.105884485
94	0x3d226ef3	0.03965659
95	0x3df3c8e1	0.11903549
96	0xbda6a5c2	-0.081370845
97	0xbe1d464e	-0.1535885
98	0xbdda0fe5	-0.10647563
99	0xbe7768e7	-0.24161111
100	0xbe3e17d1	-0.18563773
101	0xbd93a79b	-0.072097026
102	0xbdbe3046	-0.09286551
103	0xbe1c6b00	-0.15275192
104	0xbe1bdcfa	-0.15221015
105	0xbb455eb4	-0.0030116262
106	0x3d5c93df	0.05385196
107	0xbdcee574	-0.101023585
108	0xbd11e4da	-0.03561864
109	0x3dcba8d1	0.099443085
110	0xbc633166	-0.013866758
111	0xbd313c70	-0.04327053
112	0xbd66a0e9	-0.0563058
113	0xbe067c80	-0.1313343
114	0xbd953412	-0.07285322
115	0xbe7c6a77	-0.24649988
116	0x3e273bf5	0.16331466
117	0xbc9f8673	-0.01947329
118	0x3ce35eb2	0.027755115
119	0xbdab00ab	-0.08349737
120	0xbe4cbf17	-0.1999477
121	0xba5ade67	-0.00083491806
122	0x3d0aef6e	0.033919744
123	0x3c2c6c7f	0.010523914
124	0xbe128ab4	-0.14310724
125	0x3da3cec1	0.079984196
126	0xbd834fd0	-0.064117074
127	0xbd8a7f8a	-0.067626074
128	0x3d947093	0.07248034
129	0x3e765075	0.2405413
130	0x3d809ddf	0.062801115
131	0xbe29f47c	-0.1659717
132	0xbca1451b	-0.019686272
133	0x3dfe99fe	0.124317154
134	0xbdfd9e85	-0.12383751
135	0xbb3d7d1d	-0.0028913685
136	0xbddaa179	-0.1067533
137	0x3c0ae0d7	0.008476458
138	0x3cc60864	0.024173923
139	0xbdd3f19e	-0.10348819
140	0xbde21459	-0.11039037
141	0xbd679383	-0.056537163
142	0xbe2502ca	-0.16114345
143	0x3c2eacad	0.010661286
144	0xbdedc6c1	-0.11610175
145	0x3d24fd57	0.040280666
146	0xbda445d7	-0.080211334
147	0x3dd16ef0	0.10226238
148	0xbe07a5d5	-0.13246854
149	0xbe670b25	-0.22562845
150	0xbda10c4a	-0.07863672
151	0x3da90541	0.08252955
152	0xbe3ce5f5	-0.18447097
153	0xbe03c36f	-0.12867521
154	0x3d7bf20c	0.06151013
155	0xbe417449	-0.18892016
156	0x3d46d675	0.048544366
157	0x3d3af93e	0.045647852
158	0x3ad18183	0.0015984032
159	0x3d18c862	0.037300475
160	0xbdb890e7	-0.09012013
161	0xbca60c70	-0.020269603
162	0xbd4109f8	-0.047128648
163	0x3c947d05	0.01812602
164	0xbcb287a1	-0.021793189
165	0x3c9a6c43	0.018850451
166	0xbcd637ba	-0.02614962
167	0xbc0ec3b6	-0.008713653
168	0xbcd0a5cf	-0.025469689
169	0xbd5b7868	-0.053581625
170	0x3d67674c	0.056494996
171	0xbd169465	-0.036762614
172	0x3d29a64f	0.04141837
173	0x3be4ede4	0.0069863666
174	0xbbb4729e	-0.0055068275
175	0x3d3b5807	0.045738246
176	0x3d959123	0.07303073
177	0xbce36180	-0.027756453
178	0x3cb064ab	0.021532377
179	0x3d6451b4	0.05574198
180	0xbc9ab5b5	-0.018885473
181	0x3afe1a0f	0.0019386428
182	0xbd852bd7	-0.065025024
183	0x3d7e55b4	0.06209345
184	0x3bdeffa6	0.006805378
185	0xbd8ee27b	-0.069767915
186	0xbf17cd99	-0.5929809
187	0xbcaa8914	-0.020817317
188	0xbd132944	-0.035928026
189	0x3e52d276	0.20588097
190	0xbd957b71	-0.07298935
191	0x3dfc00a0	0.12304807
192	0x3f25c5ae	0.6475476
193	0x3e93e3da	0.28884774
194	0x3c4fb25b	0.012676801
195	0x3f1caf5c	0.6120508
196	0x3c45c4c8	0.012070842
197	0xbce0a0ea	-0.02742048
198	0x3cb4acd4	0.022055067
199	0xbd495272	-0.04915089
200	0xbd7d6827	-0.061866906
201	0x3dd27b77	0.10277455
202	0x3d109f66	0.035308264
203	0xbef904a9	-0.48636368
204	0x3e2b57e9	0.16732754
205	0xbec6777f	-0.38763043
206	0xbd84aa67	-0.06477814
207	0xbdf9b641	-0.12192965
208	0x3cae1ff9	0.02125548
209	0xbf2fdc49	-0.68695503
210	0x3db8189c	0.08989069
211	0xbd614095	-0.05499323
212	0x3c8443b9	0.016145574
213	0xbf5e4064	-0.86817
214	0xbf063dbd	-0.52437955
215	0xbd2f946f	-0.042866167
216	0x3d8548f4	0.06508055
217	0x3e2e2292	0.17005375
218	0xbe198933	-0.14993744
219	0xbc5fec6b	-0.013667206
220	0xbe7bd0ae	-0.24591324
221	0xbe6f5352	-0.23371628
222	0xbe08495b	-0.13309233
223	0x3df49077	0.11941617
224	0x3b10e69a	0.0022110105
225	0xbe18744f	-0.14888118
226	0xbecb1657	-0.3966548
227	0xbde0910d	-0.10965166
228	0xbe550baf	-0.20805238
229	0x3f03a049	0.5141645
230	0xbebe61e9	-0.37184075
231	0xbedfe34f	-0.4372811
232	0x3ea40419	0.32034376
233	0xbeb9acef	-0.3626475
234	0x3cf142a7	0.029450728
235	0xbd5f510a	-0.054520644
236	0x3f729af9	0.9476772
237	0x3f05fbf6	0.52337587
238	0xbf8ee768	-1.116437
239	0x3e7e174c	0.24813575
240	0xbe5b21fd	-0.21399684
241	0x3e54faa6	0.2079874
242	0xbd235eeb	-0.039885443
243	0x3e306e0f	0.17229484
244	0xbe3652b6	-0.17804989
245	0xbf2b9933	-0.6703064
246	0x3e7d38c5	0.24728687
247	0x3e463147	0.19354735
248	0xbfaeebd5	-1.366572
249	0x3f01b5c4	0.5066798
250	0x3de12a76	0.10994427
251	0xbc388192	-0.011261361
252	0xbac7e404	-0.0015250449
253	0x3d867dbb	0.0656695
254	0xbf3b9576	-0.73274934
255	0xbf2ed20b	-0.6828925

layers.0.bias f4 [83]
0	0xbd4205a1	-0.04736865
1	0x3c8857c9	0.016643422
2	0xbccffd16	-0.025389235
3	0x3d19bd1b	0.03753386
4	0xbdcaa155	-0.09894053
5	0x3c14a492	0.00907244
6	0xbdac4215	-0.08411042
7	0x3b8ae763	0.004239009
8	0x3ddf0238	0.10889095
9	0x3c9004ae	0.017580356
10	0xbd17b469	-0.037037287
11	0xbdc94773	-0.09828081
12	0x3d06d6bb	0.032919627
13	0xbc804b63	-0.015660947
14	0xbe05f7ce	-0.13082811
15	0xbd382343	-0.044955503
16	0xbda954e6	-0.08268146
17	0xbd82f9a2	-0.0639527
18	0xbd90e83d	-0.07075546
19	0x3e21ecac	0.1581294
20	0xbd8ea5f3	-0.06965246
21	0x3ca7cf9e	0.020484742
22	0xbdf1830a	-0.11792572
23	0x3e0fa13e	0.14026353
24	0xbdfdc7a4	-0.12391594
25	0xbdd83067	-0.10556107
26	0x3d7b77b4	0.061393455
27	0xbd7bf3a4	-0.06151165
28	0x3ce56d07	0.02800609
29	0xbdd588a1	-0.104264505
30	0xbd90b33e	-0.07065438
31	0xbd546515	-0.05185421
32	0xbe50257c	-0.20326799
33	0xbd9bdb97	-0.07610243
34	0xbd1ba267	-0.037996676
35	0x3db011ba	0.08597131
36	0x3d0e5d47	0.034756925
37	0x3bd168e4	0.0063906778
38	0xbc2d31bc	-0.01057094
39	0xbda915cd	-0.08256111
40	0xbd3a6500	-0.045506477
41	0xbdd293b9	-0.10282082
42	0xbd892edf	-0.06698393
43	0xbe331279	-0.17487516
44	0xbc8456ba	-0.016154636
45	0xbd96d567	-0.07364922
46	0xbd9060a8	-0.07049686
47	0xbe165ff7	-0.14685045
48	0xbd1cea7e	-0.038309567
49	0xbcc32c25	-0.02382476
50	0xbe022197	-0.12708126
51	0xbda90603	-0.082531
52	0x3cc7b1f6	0.02437685
53	0x3dc1628a	0.09442623
54	0xbdc3a003	-0.09552004
55	0xbd7f232c	-0.062289402
56	0x3d24ce9d	0.040236104
57	0xbdb5f0aa	-0.08883794
58	0x3da5c5df	0.080943815
59	0xbdd6c970	-0.1048764
60	0x3e2503dc	0.16114753
61	0xbe2b8cfe	-0.16753003
62	0x3be269ee	0.0069096005
63	0xbd4c8170	-0.04992813
64	0xbdc73f88	-0.097289145
65	0xbd733ae0	-0.05938232
66	0xbdcc709e	-0.099824175
67	0x3d25cbc2	0.04047752
68	0xbc870dcb	-0.01648607
69	0xbdc354e3	-0.09537675
70	0x3c116925	0.008875166
71	0xbde5fae7	-0.112294964
72	0xbdb33b56	-0.08751552
73	0x3d6a947d	0.057270516
74	0x3ce72c81	0.028219463
75	0xbd0638c6	-0.032768987
76	0x3e19531d	0.14973111
77	0xbdb5c673	-0.08875742
78	0x3d9f4cff	0.07778358
79	0xbc652486	-0.013985759
80	0xbd4fa8f8	-0.05069825
81	0xbbe4ebe0	-0.0069861263
82	0x3dbbed17	0.09176081

layers.1.weight f4 [41, 83]
0	0x3c993189	0.018700378
1	0x3d2f0705	0.042731304
2	0x3d45f85b	0.048332553
3	0xbe85406b	-0.2602571
4	0xbd1ac1ff	-0.037782665
5	0xbbb86b30	-0.005628012
6	0x3d8a39ed	0.0674933
7	0xbd8ee2d8	-0.06976861
8	0xbe407b3d	-0.18797012
9	0xbe92be8d	-0.28661004
10	0x3e4d39d7	0.20041595
11	0x3e39af4d	0.18133278
12	0xbdf94396	-0.12171094
13	0x3c1f1d09	0.009711512
14	0xbcde89df	-0.027165351
15	0xbeb04d4e	-0.3443398
16	0xbcfc7b87	-0.030820621
17	0x3dea30b4	0.11435071
18	0x3d91d086	0.07119851
19	0xbcf3f453	-0.029779589
20	0x3d77aad8	0.060465664
21	0xbed60992	-0.41804177
22	0xbd2fb998	-0.042901605
23	0x3dc74901	0.09730721
24	0x3ee155d8	0.44010806
25	0x3c6c95d9	0.014440023
26	0x3d5fffa1	0.054687146
27	0x3e127fa1	0.14306499
28	0xbbc7f696	-0.0061023934
29	0x3da7c4cf	0.08191835
30	0x3d479972	0.04873032
31	0x3dcbdd62	0.09954335
32	0xbe20b2e5	-0.15693243
33	0xbd4b8656	-0.04968866
34	0xbd3f31ee	-0.046678476
35	0xbe1f790b	-0.15573518
36	0xbf3e32db	-0.7429635
37	0x3dc50762	0.09620549
38	0xbc927812	-0.01787952
39	0x3dca9ad3	0.098928116
40	0x3de0f6d3	0.10984578
41	0x3d6ad669	0.057333384
42	0xbdbc96ac	-0.09208426
43	0x3e6aac41	0.22917272
44	0x3d43413a	0.047669627
45	0xbd0f39ea	-0.03496734
46	0x3df568a2	0.11982848
47	0x3d90bf41	0.07067729
48	0x3e40ceeb	0.18828933
49	0x3f04890d	0.5177162
50	0x3e0497e6	0.1294857
51	0x3d60902e	0.054825
52	0x3da5566c	0.08073124
53	0xbece3abd	-0.4027919
54	0x3d2d3abe	0.04229235
55	0x3e2a4da5	0.16631182
56	0xbdba93f1	-0.09110249
57	0xbdd4b42c	-0.103859276
58	0x3cc8080f	0.024417905
59	0x3e609b25	0.21934183
60	0x3e742016	0.23840365
61	0x3d5a2a4b	0.05326299
62	0x3dc0a98e	0.0940734
63	0x3ebaea41	0.36506847
64	0x3d9b5558	0.075846374
65	0x3c3a69d1	0.011377768
66	0xbce43388	-0.027856603
67	0xbccae93f	-0.024769424
68	0x3ce27826	0.027645182
69	0x3e16a5d4	0.14711696
70	0x3dd25325	0.10269765
71	0xbc731f5b	-0.014839019
72	0xbce74749	-0.028232234
73	0x3e3772a4	0.17914826
74	0xbaa6b1b0	-0.001271775
75	0x3d117ebf	0.035521265
76	0xbe5a9c77	-0.21348749
77	0xbc9c8886	-0.019108068
78	0x3d66caa0	0.056345582
79	0x3dd9ef00	0.10641289
80	0x3e35ac17	0.17741428
81	0xbc81d6cd	-0.015849495
82	0x3e18ab94	0.14909202
83	0xbdc5c647	-0.09656959
84	0xbe36d327	-0.17853986
85	0xbe35afc7	-0.17742835
86	0xbe15fe0e	-0.14647695
87	0x3d65da9b	0.05611668
88	0x3cf07eea	0.029357392
89	0xbc529bc7	-0.012854523
90	0x3c8d9941	0.017284991
91	0xbc5a4cfe	-0.01332402
92	0xbd0a7564	-0.03380336
93	0x3c769b77	0.015051714
94	0xbe14d1c4	-0.14533144
95	0xbe24d102	-0.16095355
96	0x3d8f07cd	0.0698391
97	0xbddc3b82	-0.10753538
98	0xbdaea938	-0.0852837
99	0x3c26ffc1	0.010192812
100	0xbd08dfe2	-0.033416636
101	0xbd78ad09	-0.060711894
102	0xbd059b46	-0.032618783
103	0x3d6fe8b7	0.058571544
104	0x3d7168cb	0.05893783
105	0x3d6ac035	0.05731221
106	0xbdf9e7c9	-0.12202413
107	0xbd9d74e8	-0.07688314
108	0xbd04cd2d	-0.032422233
109	0x3d959d56	0.073054
110	0xbe0272a9	-0.12739052
111	0xbcd57aab	-0.02605947
112	0xbd37ac28	-0.044841915
113	0xbdd80f9b	-0.105498515
114	0xbeb60c05	-0.35556045
115	0xbd9213c2	-0.07132675
116	0xbd93d2cd	-0.072179414
117	0xbc330456	-0.010926327
118	0xbc15c7f3	-0.00914191
119	0xbe3551e1	-0.17707016
120	0xbd3c67c3	-0.045997392
121	0x3d8ce5fe	0.06879805
122	0xbdbef611	-0.09324277
123	0x3da7f54f	0.08201086
124	0xbb4db368	-0.0031387452
125	0x3dd6dc44	0.10491231
126	0xbd2fc344	-0.04291083
127	0xbc83b4ba	-0.016077388
128	0x3c2c790f	0.0105269095
129	0xbd83dbac	-0.064383835
130	0xbdc3981c	-0.09550497
131	0xbe3b75e9	-0.18306698
132	0xbc6d386d	-0.014478785
133	0x3db1204e	0.0864874
134	0xbdd9b64f	-0.10630476
135	0x3c1fde52	0.009757595
136	0x3b1bf17b	0.0023795057
137	0xbc8650cf	-0.016395954
138	0x3d2a682c	0.041603252
139	0xbe60f2c1	-0.21967603
140	0xbe2bcdd3	-0.16777734
141	0xbe377400	-0.17915344
142	0xbe05c27b	-0.1306247
143	0xbd6356ef	-0.05550283
144	0xbc8b6458	-0.017015621
145	0xbe8a6525	-0.27030292
146	0xbdb2ba5f	-0.08726954
147	0x3d39b956	0.045342766
148	0xbd7b25f0	-0.061315477
149	0x3a90b09c	0.0011038962
150	0xbd973f05	-0.07385067
151	0x3ca8e900	0.020618916
152	0xbd056e87	-0.03257611
153	0xbdc6846f	-0.096932285
154	0xbd8636c9	-0.06553418
155	0x3c5da3d6	0.013527831
156	0xbe346339	-0.17615975
157	0xbdc3d91b	-0.09562894
158	0xbd635006	-0.05549624
159	0x3cab95a8	0.020945385
160	0xbd06ed51	-0.032941166
161	0xbd1e67cf	-0.03867322
162	0xbe5d6d84	-0.21623808
163	0x3bdbc838	0.0067072175
164	0xbcd15852	-0.02555481
165	0xbdbfefb6	-0.09371893
166	0xbd8ef32a	-0.069799736
167	0xbc74eec3	-0.014949503
168	0xbd9d9d47	-0.07696014
169	0xbf26c961	-0.6515103
170	0xbdf117ed	-0.117721416
171	0x3d90d172	0.070711985
172	0xbd601c01	-0.054714207
173	0x3df97356	0.12180202
174	0xbb60adf5	-0.0034283374
175	0xbe84ae92	-0.25914437
176	0x3e584003	0.21118169
177	0x3e81e57e	0.253704
178	0xbdc6ded4	-0.0971047
179	0x3d3cc672	0.04608769
180	0x3d26df93	0.04074056
181	0xbebb8871	-0.36627534
182	0xbdb73bf3	-0.08946981
183	0xbd2d4548	-0.0423024
184	0xbbe56b58	-0.0070013218
185	0xbcee720e	-0.02910712
186	0x3d865090	0.06558335
187	0xbeb76eb3	-0.35826644
188	0xbd8f4236	-0.069950506
189	0x3e6f4ea0	0.23369837
190	0x3ecda614	0.4016577
191	0x3b25d748	0.002530532
192	0x3c69d4e0	0.014271945
193	0x3e604d96	0.21904597
194	0x3db48875	0.088150896
195	0x3b62a5b2	0.0034583625
196	0xbd9c4361	-0.07630039
197	0x3e0cc72b	0.13747852
198	0xbca659e3	-0.020306533
199	0x3e0fa82e	0.14028999
200	0xbd638d22	-0.055554517
201	0xbe194337	-0.14967047
202	0xbf1d09be	-0.6134299
203	0x3e81a433	0.25320587
204	0x3df3ad1f	0.118982546
205	0x3d9150c7	0.07095485
206	0xbd496d27	-0.04917636
207	0xbd72e32d	-0.059298683
208	0xbd900008	-0.07031256
209	0x3e1cfecd	0.15331574
210	0x3d864980	0.06556988
211	0xbd83b2e0	-0.06430602
212	0x3d8261eb	0.063663326
213	0x3dd7682b	0.10517915
214	0x3e1efabb	0.15525334
215	0x3ea3673f	0.31914708
216	0xbdb3e3ec	-0.08783707
217	0x3e0b0895	0.13577493
218	0x3d9fb9b6	0.077990934
219	0xbecd5c58	-0.40109515
220	0xbd6be880	-0.057594776
221	0xbd6fe528	-0.05856815
222	0xbd511c95	-0.05105265
223	0xbd87a5e8	-0.06623441
224	0x3df34756	0.118788406
225	0x3e856c5c	0.26059234
226	0x3e69f8e8	0.22848856
227	0x3d9527a4	0.072829515
228	0x3df21c4b	0.11821803
229	0x3eecc37d	0.46242896
230	0x3bb669b9	0.0055668023
231	0x3d5e7be8	0.054317385
232	0xbc16e6fc	-0.009210344
233	0x3d5373ff	0.051624294
234	0x3d9870ef	0.074434154
235	0xba2f441e	-0.00066858705
236	0xbd0e606b	-0.03475992
237	0xbddd6bf0	-0.10811603
238	0x3d963a46	0.073353335
239	0x3df99139	0.12185902
240	0xbd36f81e	-0.044670217
241	0x3d00f444	0.03148295
242	0xbe95c6fa	-0.2925337
243	0x3dd4fd21	0.10399843
244	0xbebee541	-0.37284282
245	0x3d6f7297	0.05845889
246	0x3d847d11	0.06469167
247	0xbd6efe55	-0.05834802
248	0x3c892693	0.016742026
249	0xbd33c5d7	-0.043889847
250	0x3ed71278	0.42006278
251	0xbd95f6f9	-0.07322497
252	0xbe50129f	-0.20319603
253	0xbc104dc4	-0.008807603
254	0x3d457833	0.048210334
255	0x3d8bb997	0.06822508

layers.1.bias f4 [41]
0	0xbc0688a2	-0.008211287
1	0xbea8640a	-0.32888824
2	0xbc899cd1	-0.016798409
3	0x3d56b683	0.05242015
4	0xbdd52dd5	-0.104091324
5	0xbdfc402b	-0.123169266
6	0xbdc8c3be	-0.0980296
7	0xbe4dcd17	-0.20097767
8	0xbe9ecec3	-0.31017122
9	0xbd6f96b3	-0.058493327
10	0xbd3e1bcd	-0.04641323
11	0x3e5f2c5b	0.21794264
12	0xbe2e823d	-0.1704187
13	0x3da8b868	0.08238298
14	0x3d19ae64	0.037519827
15	0x3d8888d1	0.06666721
16	0x3ca844f6	0.020540696
17	0x3d4e1f4b	0.050322812
18	0xbe0c93b3	-0.13728218
19	0xbda7ae52	-0.08187546
20	0x3e207aed	0.15671892
21	0x3c89b003	0.016807562
22	0x3baa689a	0.0052004578
23	0xbe968f40	-0.29406166
24	0x3da01950	0.07817328
25	0x3e163f29	0.14672531
26	0x3e2d82f0	0.1694448
27	0xbe1c99a4	-0.15292984
28	0x3e5df7ac	0.2167651
29	0xbce88317	-0.028382821
30	0x3dad404f	0.084595315
31	0x3e0fe512	0.14052227
32	0xbddeeb9e	-0.10884784
33	0xbcd6bc36	-0.026212793
34	0xbd38bacc	-0.04510002
35	0xbdb2bc31	-0.08727301
36	0xbe1cf1ae	-0.15326568
37	0x3db089d8	0.086200416
38	0x3cf41157	0.029793425
39	0xbddbd929	-0.107347794
40	0x3dbdd629	0.092693634

fc_out.weight f4 [1, 41]
0	0x3e9629cc	0.29328763
1	0x3de54df5	0.1119651
2	0x3e86a144	0.2629491
3	0xbe57e551	-0.21083571
4	0xbe8a1c53	-0.26974735
5	0x3bfbbfdf	0.007682785
6	0xbeb7c284	-0.3589059
7	0x3cfa9775	0.030589798
8	0x3de4eebf	0.1117835
9	0xbe9a146e	-0.30093712
10	0xbd8622f6	-0.06549637
11	0x3e8494c4	0.2589475
12	0xbee6e5f1	-0.45097306
13	0xbebcaf15	-0.36852327
14	0xbea571ff	-0.32313535
15	0x3e812d86	0.25230044
16	0xbe61ea90	-0.22062135
17	0xbeac9857	-0.33709976
18	0xbdd9bab9	-0.10631318
19	0xbe78f7a3	-0.24313216
20	0x3e897d1e	0.2685327
21	0xbdcc8c25	-0.09987668
22	0x3e9738f4	0.2953564
23	0xbe38f391	-0.18061663
24	0x3e99fb71	0.30074647
25	0x3ed8171e	0.42205137
26	0x3e78820e	0.24268362
27	0xbe91d1d8	-0.2848041
28	0x3ea9ef4d	0.33190385
29	0x3d8330e3	0.06405809
30	0xbe959c90	-0.2922101
31	0x3ebaad2f	0.36460254
32	0x3c921c34	0.017835714
33	0xbe4ca3b6	-0.19984326
34	0xbbaef7ca	-0.0053395974
35	0xbd963679	-0.073346086
36	0x3d9347fc	0.07191464
37	0xbeba3b2b	-0.36373267
38	0xbe888c29	-0.26669434
39	0xbe8c5e6b	-0.27415785
40	0x3e9078f1	0.2821727
