models/P31639_FCNN_tuned.pt (torch, 58272 bytes, 3 tensors)

layers.0.weight f4 [83, 167]
-0.025327038 -0.06270927 0.010921685 -0.03374359 0.025697188 0.021791887 0.019504264 -0.01132831
0.18049017 0.06715593 0.013115345 0.28521174 -0.020062312 0.024123704 0.00474937 0.3741651
0.18113163 0.3630674 0.09199194 0.03528821 0.03706629 0.071547754 0.8472685 -0.032340545
0.027130883 -0.021697158 0.11573001 0.035528146 0.39231047 0.2751293 -0.024749259 0.12277662
-0.04360272 0.008373705 0.21117932 0.18323357 0.23914011 0.40104744 0.10631989 0.31468418
0.35394356 0.498963 0.42475203 0.36060563 0.1421015 0.13264002 -0.17912628 0.0015727429
0.25322196 0.030252434 0.305773 -0.046980683 -0.30368325 0.040446263 0.041883163 -0.04673069
0.005589357 -0.09650738 -0.11526442 -0.027842779 -0.1305594 -0.060160242 0.14550385 -0.017254958
-0.0048137447 -0.15451656 -0.041863807 -0.07891531 0.068045475 0.06572124 0.042887766 -0.08350117
0.045473017 -0.16626969 -0.23704152 -0.11283638 0.14656535 0.10973751 0.16020063 0.025144769
-0.09139313 0.15902682 0.15654397 0.17844608 0.06961948 -0.16394898 0.08508252 0.04868575
0.12131424 -0.037469327 0.15146022 0.096335165 -0.1104823 0.06528301 -0.19309379 -0.28860855
0.054319657 -0.13855055 0.010971319 0.061378367 -0.03450003 0.06309653 -0.14020632 0.3233601
0.38704798 0.06979172 0.18973024 0.045596655 -0.15114485 -0.026896415 -0.15855896 0.16365397
0.14467002 0.013135156 -0.14549063 -0.02552569 -0.103175946 -0.06650678 0.031326793 0.08300357
0.0450325 -0.21977603 -0.1466685 -0.09002757 -0.31559205 0.015894508 -0.047892652 -0.015697632
-0.07565819 0.047440607 -0.026837649 0.014817678 -0.046602402 0.13899714 0.042123277 0.10548169
-0.2814296 -0.09879413 -0.011711428 0.019503668 0.073960714 -0.31413662 -0.19369307 -0.031666826
0.074088745 0.052214578 0.057554483 0.044809353 -0.19791162 0.02193279 0.026469762 -0.08382671
-0.008086573 0.032731254 -0.111600295 0.029418075 -0.12243152 0.075296864 -0.22240348 0.023544567
-0.13112615 -0.15823291 -0.004944926 -0.036259398 0.065952554 0.05506672 0.3113761 -0.042182885
-0.0045304215 0.044476107 0.060195692 0.034694444 0.042660393 0.02800015 0.009017331 0.07140652
0.0142888725 0.023179889 0.18072005 0.020899177 -0.11866949 0.047032442 0.31520492 0.25229633
0.4650579 -0.044041213 -0.2238125 0.034802597 0.04734305 0.008192483 0.3288071 -0.06473876
0.032032136 -0.022517396 -0.06688814 0.49259636 0.18576272 -0.07174764 0.037195787 0.17342246
0.30440944 0.39205867 0.17791961 -0.044737015 -0.07329319 -0.043104738 0.29040846 0.3581048
-0.15782677 0.07264064 0.28541374 0.0027015142 0.027049506 -0.18971007 -0.18637617 0.36273894
0.008230003 -0.21158569 0.014140262 0.084900215 -0.040695906 0.13663976 0.0858884 -0.09049821
-0.04284031 0.05555724 -0.04528599 0.029528499 0.125604 -0.013685045 -0.09983918 0.1372223
-0.006841635 -0.0037438879 0.06049674 -0.029899385 -0.02877467 0.2053594 -0.11811047 0.15188141
0.02597564 -0.20874752 0.12571567 -0.113776766 0.050157048 0.0183954 0.065313086 0.17883955
0.024531916 0.026921703 0.091929294 -0.13010745 -0.112184934 -0.17871408 -0.06588214 0.10752993
00000000: a67a cfbc b86d 80bd def0 323c b836 0abd
00000010: e982 d23c e684 b23c 68c7 9f3c 609a 39bc
00000020: 6ad2 383e 0c89 893d bee1 563c 4607 923e
00000030: b859 a4bc 139f c53c 9aa0 9b3b 9192 bf3e
00000040: 927a 393e f8e3 b93e 4566 bc3d 5f8a 103d
00000050: d2d2 173d a187 923d 97e6 583f 8577 04bd
00000060: 9641 de3c 3dbe b1bc db03 ed3d f685 113d
00000070: ebdc c83e bfdd 8c3e f5be cabc 4f72 fb3d
00000080: c498 32bd dd31 093c 643f 583e 95a1 3b3e
00000090: 25e1 743e 1756 cd3e 3ebe d93d 491e a13e
000000a0: 1738 b53e 1478 ff3e 1979 d93e 4da1 b83e
000000b0: 0e83 113e c9d2 073e e16c 37be 7f24 ce3a
000000c0: 4fa6 813e f4d3 f73c 478e 9c3e d16e 40bd
000000d0: 5f7c 9bbe fbaa 253d ae8d 2b3d ae68 3fbd
000000e0: ed26 b73b a9a5 c5bd c10f ecbd 8a16 e4bc
000000f0: 5db1 05be 966a 76bd f6fe 143e 455a 8dbc
00000100: 9ebc 9dbb 9739 1ebe 6279 2bbd 5a9e a1bd
00000110: 6d5b 8b3d dc98 863d 15ab 2f3d a902 abbd
00000120: ea41 3a3d 9a42 2abe 03bb 72be c316 e7bd
00000130: 3a15 163e 0fbe e03d a20b 243e 67fc cd3c
00000140: 522c bbbd edd7 223e 104d 203e 92ba 363e
00000150: a894 8e3d 3ee2 27be bf3f ae3d b66a 473d
00000160: 9a73 f83d 7079 19bd 6318 1b3e 5f4b c53d
00000170: 8b44 e2bd 19b3 853d 61ba 45be 80c4 93be
00000180: 4a7e 5e3d 32e0 0dbe 0cc1 333c e267 7b3d
00000190: e74f 0dbd c138 813d 3f92 0fbe 748f a53e
000001a0: 272b c63e f6ee 8e3d a548 423e 8fc3 3a3d
000001b0: b7c5 1abe df55 dcbc 485d 22be e894 273e
000001c0: 6124 143e d634 573c 7ffb 14be 401b d1bc
000001d0: e94d d3bd b534 88bd 8650 003d c7fd a93d
000001e0: 0074 383d f80c 61be 4430 16be 6060 b8bd
000001f0: 4895 a1be 3335 823c 162b 44bd 5298 80bc
00000200: aef2 9abd 1551 423d a1da dbbc d9c5 723c
00000210: 29e2 3ebd 4455 0e3e 7589 2c3d c906 d83d
00000220: 8a17 90be 9454 cabd 4ae1 3fbc 28c6 9f3c
00000230: b778 973d 84d6 a0be 7a57 46be 13b5 01bd
00000240: d7bb 973d f4de 553d 40be 6b3d 038a 373d
00000250: 58a9 4abe 65ac b33c 1dd7 d83c 57ad abbd
00000260: 8c7d 04bc 3511 063d b28e e4bd 2dfe f03c
00000270: 60bd fabd 3e35 9a3d bdbd 63be 89e0 c03c
00000280: ef45 06be cf07 22be 0c09 a2bb bc84 14bd
00000290: 2212 873d a48d 613d b06c 9f3e f6c7 2cbd
000002a0: ee73 94bb 942c 363d c28f 763d c31b 0e3d
000002b0: aabc 2e3d 9260 e53c 6dbd 133c 953d 923d
000002c0: e01b 6a3c c0e3 bd3c ad0e 393e c034 ab3c
000002d0: fd08 f3bd 17a5 403d 8a62 a13e fc2c 813e
000002e0: 121c ee3e 8f64 34bd 1b2f 65be 2b8d 0e3d
000002f0: c9ea 413d c439 063c 6759 a83e c195 84bd
00000300: 2134 033d 6776 b8bc a6fc 88bd 9735 fc3e
00000310: 9538 3e3e 6df0 92bd 9c5a 183d a895 313e
00000320: 8edb 9b3e eabb c83e 8f30 363e 293e 37bd
00000330: bd1a 96bd 988e 30bd 6bb0 943e 8359 b73e
00000340: 579d 21be 9ec4 943d c021 923e e30b 313b
00000350: ed96 dd3c 5b43 42be 65d9 3ebe ebb8 b93e
00000360: 22d7 063c eba9 58be 8fac 673c 2ae0 ad3d
00000370: c0b0 26bd 4beb 0b3e 42e6 af3d 2057 b9bd
00000380: 5279 2fbd fd8f 633d cd7d 39bd c0e5 f13c
00000390: 569e 003e 3d37 60bc 7c78 ccbd 0184 0c3e
000003a0: cb2f e0bb 045c 75bb 6ecb 773d 8eef f4bc
000003b0: dbb8 ebbc bc49 523e e7e3 f1bd cd86 1b3e
000003c0: deca d43c e9c1 55be 9cbb 003e cb03 e9bd
000003d0: 7a71 4d3d f3b1 963c dec2 853d b721 373e
000003e0: 28f7 c83c e78a dc3c 6d45 bc3d e33a 05be
000003f0: 37c1 e5bd d300 37be 37ed 86bd a738 dc3d

layers.0.bias f4 [83]
0.009482731 -0.04434665 0.00091265305 0.06313332 0.011355147 0.035513684 0.052980788 0.09618749
-0.060079914 -0.06537816 0.016938534 0.03646722 0.07424344 -0.058751877 0.0077263624 -0.057902418
0.02418461 0.02114763 0.08419605 -0.02494687 -0.05626231 -0.0022808292 -0.025511196 0.18117371
0.1026591 -0.013333779 -0.03919397 -0.03765459 0.008618738 0.018226275 0.039494734 0.020519039
0.015446237 0.074355245 0.046249352 -0.00043268641 -0.040389024 -0.008781211 0.11906435 0.029015604
0.026080377 -0.03208781 -0.047906656 0.04272699 -0.0636115 0.08637017 0.056968756 -0.022692027
0.06536379 0.071894564 0.03253971 -0.018711941 0.22024831 -0.072808996 0.033251237 0.052699253
-0.033229694 0.054817144 -0.045828998 -0.023008995 0.1280589 -0.032169785 -0.010819876 0.068274856
0.04275853 -0.021629717 -0.02861671 -0.08066252 0.016411547 -0.02448474 -0.041375186 0.081755176
-0.0536072 -0.067521185 0.08474471 -0.018262846 0.030122615 0.03847208 0.03429 -0.03842665
0.08758139 0.07691172 0.08580738
00000000: 755d 1b3c d5a4 35bd 1c3f 6f3a 0b4c 813d
00000010: f00a 3a3c cc76 113d 6202 593d f2fd c43d
00000020: 5b16 76bd fce4 85bd aec2 8a3c a75e 153d
00000030: f20c 983d cfa5 70bd 6d2d fd3b 162b 6dbd
00000040: ce1e c63c cb3d ad3c fb6e ac3d 615d ccbc
00000050: 4f73 66bd f779 15bb dbfc d0bc 9a85 393e
00000060: ef3e d23d ec75 5abc db89 20bd b33b 1abd
00000070: 9b35 0d3c 454f 953c 3bc5 213d 8b17 a83c
00000080: 3712 7d3c 9047 983d f66f 3d3d 30da e2b9
00000090: f66e 25bd 12df 0fbc 03d8 f33d 22b2 ed3c
000000a0: 84a6 d53c 826e 03bd c539 44bd 7f02 2f3d
000000b0: bf46 82bd d8e2 b03d 1258 693d a1e4 b9bc
000000c0: 73dd 853d 753d 933d 5c48 053d c949 99bc
000000d0: c688 613e e21c 95bd 7332 083d 2cdb 573d
000000e0: dc1b 08bd f187 603d 30b7 3bbd 5c7d bcbc
000000f0: df21 033e 77c4 03bd d945 31bc b0d3 8b3d
00000100: 9123 2f3d ce30 b1bc 976d eabc 6432 a5bd
00000110: 8271 863c 3994 c8bc 0779 29bd 426f a73d
00000120: 3993 5bbd 8c48 8abd a28e ad3d f79b 95bc
00000130: b4c3 f63c e694 1d3d ac73 0c3d 4365 1dbd
00000140: df5d b33d e483 9d3d c8bb af3d

fc_out.weight f4 [1, 83]
0.6968306 0.2594713 -0.05393104 -0.012523819 -0.56883305 0.13914008 0.08521459 0.2466007
0.31548163 -0.49863097 -0.0033594354 0.23567116 -0.18955317 0.12902734 0.20957379 -0.036860187
0.21785821 0.14833859 -0.49897808 -0.09634199 0.20972139 -0.55578125 -0.33084357 -0.468092
-0.22121747 -0.055963 0.8641027 0.15967533 -0.574176 0.030715585 -0.39939308 -0.08076906
-0.033921905 0.21652438 0.21485385 -0.039519083 0.23818845 0.12834981 -0.59618694 -0.3595288
0.12403415 -0.36607012 -0.10184389 0.17604493 0.17425333 -0.49972486 0.15428121 0.16942154
-0.51165146 -0.22112478 0.72869086 0.10461478 -0.5146704 -0.02636976 0.15928347 -0.23293865
-0.0067209513 -0.014453917 -0.411195 0.18966988 -0.5425649 0.29354027 0.19483453 -0.06782336
0.20794113 0.21718735 -0.59267396 -0.08246195 -0.012602682 0.32554248 0.26367715 -0.569845
-0.032645322 -0.09743251 0.13428666 -0.34775892 0.46512637 -0.54665625 -0.38396206 0.011302152
0.21291475 0.17492309 0.09608219
00000000: 7d63 323f 6cd9 843e cbe6 5cbd b430 4dbc
00000010: 0b9f 11bf bd7a 0e3e fd84 ae3d e584 7c3e
00000020: cf86 a13e 8f4c ffbe f929 5cbb c853 713e
00000030: 3a1a 42be be1f 043e 839a 563e b5fa 16bd
00000040: 3916 5f3e 12e6 173e 0e7a ffbe f34e c5bd
00000050: 34c1 563e ae47 0ebf 5464 a9be c1a9 efbe
00000060: d586 62be 7539 65bd d635 5d3f ee81 233e
00000070: 33fd 12bf 409f fb3c 407d ccbe 406a a5bd
00000080: b2f1 0abd 91b8 5d3e a602 5c3e c3de 21bd
00000090: ace7 733e 226e 033e b59f 18bf 2914 b8be
000000a0: 9e05 fe3d 8b6d bbbe 8893 d0bd 1f45 343e
000000b0: 776f 323e f0db ffbe e5fb 1d3e d77c 2d3e
000000c0: 97fb 02bf 896e 62be 7c8b 3a3f 4640 d63d
000000d0: 70c1 03bf 6505 d8bc 351b 233e 7887 6ebe
000000e0: 6d3b dcbb 1fd0 6cbc 2788 d2be d238 423e
000000f0: 89e5 0abf e94a 963e b482 473e f9e6 8abd
00000100: 85ee 543e 5c66 5e3e 7bb9 17bf d0e1 a8bd
00000110: 7b7b 4ebc 81ad a63e b100 873e 5de1 11bf
00000120: 1ab7 05bd b28a c7bd 7182 093e 750d b2be
00000130: 0b25 ee3e aaf1 0bbf ad96 c4be a92c 393c
00000140: 5306 5a3e 0a1f 333e bdc6 c43d
